Step3_Predict/final_model_tuned.pth (torch, 82360 bytes, 7 tensors)

layers.0.weight f4 [128, 72]
000000 33 81 94 bd 2d 10 3c bd f5 1a 1f bd 32 e1 70 bc
       -0.07251205 -0.045913864 -0.038844068 -0.014702128
000010 75 a4 f8 3c 79 a4 12 bd fe 0f e3 3c a9 96 83 bc
       0.030351857 -0.035801385 0.027717587 -0.016063051
000020 44 2a 9e bb 4f 72 e4 bc f6 1b 90 3d 66 20 d2 3c
       -0.004826816 -0.027886538 0.07036583 0.025650214
000030 5b 06 11 bc c2 c6 a7 bc be b7 bd 3b 84 60 a0 bc
       -0.008851613 -0.020480517 0.005789726 -0.019577272
000040 e5 8c 16 bd b7 8c 9d 3b d6 9e 4f 3c eb b8 22 bc
       -0.03675546 0.0048080343 0.012672147 -0.009931783
000050 9a d4 93 bc 27 e0 c1 bb 87 7c 46 3b 9f df 03 3c
       -0.018045712 -0.0059166136 0.0030286626 0.008048921
000060 19 55 c6 bc e4 18 91 bb 66 b0 02 3d 2a cf a3 3c
       -0.0242105 -0.004428016 0.031906508 0.019996244
000070 fe 17 b8 bc c0 5b 38 3c 00 1b ae bb b2 05 53 bc
       -0.022472378 0.011252344 -0.0053132772 -0.012879776
000080 2d d3 07 bc df 18 b2 bc ea fc 5c 3d b8 bd 05 3d
       -0.008290094 -0.021740375 0.053952135 0.032651633
000090 f1 f9 37 3d 50 ef b1 bc 52 74 55 bd c1 ea 9e bd
       0.044916097 -0.021720558 -0.052112885 -0.077596195
0000a0 7e b8 1f bd 2c b9 b0 3c 75 d6 91 3c de 0f 3b ba
       -0.038994305 0.021572672 0.017802456 -0.0007135848
0000b0 8d e9 d1 3c 59 64 4d 3c 77 35 b2 bd 3c 4b 2a 3d
       0.025624061 0.012536132 -0.08701604 0.041575655
0000c0 33 fa 81 bd fc 1b 26 bd c4 83 c7 bd 22 7f 9f 3d
       -0.0634655 -0.04055403 -0.09741929 0.077879205
0000d0 95 94 58 bd 62 fd 7c bc 82 e6 91 3c 55 e7 1d 3c
       -0.052876074 -0.015441271 0.01781011 0.009637673
0000e0 fc 7d f2 3c ca f9 17 3c 49 83 0c bd 15 b3 8a 3d
       0.02960109 0.009275863 -0.03430489 0.067724384
0000f0 d9 d1 bf bc af d3 3d bd 71 e6 19 3c 58 e5 5e 3c
       -0.023415493 -0.046344455 0.00939332 0.0136044845
000100 17 e0 4f bc cf 15 84 bc e3 dd 94 bd c1 00 78 3c
       -0.0126877045 -0.01612368 -0.07268884 0.0151368985
000110 50 6c a0 bc ad 83 19 bc 9f 6c 87 bc c6 35 1c 3b
       -0.019582897 -0.009369773 -0.016531287 0.0023835762
000120 23 0d 8a 3c 6b 03 16 3d 79 59 f7 3c f2 6d b4 3b
       0.016851967 0.036624353 0.030194031 0.0055062706
000130 5e 69 4c bc 25 58 6a bc 9f a6 26 bb c4 61 03 bc
       -0.012476293 -0.014303242 -0.0025428904 -0.008018915
000140 8f 33 b6 3c 26 11 35 3c c8 5f 43 bc d7 7f da bb
       0.022241382 0.011051452 -0.0119246915 -0.0066680717
000150 ca 0a 7e 3b d9 54 4d 3b df 46 0b 3c b1 a3 c6 3b
       0.0038763755 0.003133109 0.008500784 0.006061994
000160 79 bc b7 bc 5f 4b 0f bc fe 16 82 bc 4f be fd 3b
       -0.022428738 -0.008745997 -0.015880104 0.007743634
000170 34 3e ab bb d1 ed 4b bc 74 eb 63 3a 9e 46 07 bc
       -0.005225921 -0.012446837 0.0008694448 -0.008256583
000180 f4 2e 3c bd f9 e9 6e 3c 18 12 9b ba f0 3b bd 3a
       -0.045943215 0.014582151 -0.0011830954 0.0014437418
000190 cb de 63 bb 11 c9 bb 3c a2 95 78 bb ea 81 91 3b
       -0.0034770246 0.022923024 -0.0037930985 0.004440536
0001a0 02 10 89 ba 8c c8 c2 3b 69 d8 5b bc 19 cc 9b 3c
       -0.0010457041 0.005944317 -0.013418295 0.01901822
0001b0 51 43 14 3b be a4 01 bd 95 eb ca 3c a3 ac bd 3c
       0.0022623132 -0.03165125 0.024770537 0.023153609
0001c0 82 84 d7 bc 69 28 6a 3c 0f 12 f4 3b 14 77 53 bc
       -0.026308302 0.014291861 0.007448442 -0.012906808
0001d0 f7 56 2e bc 47 56 1f bd 09 16 12 3d 22 de d7 bb
       -0.010640851 -0.03890064 0.035665546 -0.0065877596
0001e0 62 2c 1d 3d 84 5f 2a bd 6f 36 c2 3c c5 b1 b1 bc
       0.038372405 -0.041594997 0.023707597 -0.021691212
0001f0 05 54 05 3d b8 88 4c bd 0b cf 42 3d f3 93 80 3d
       0.03255083 -0.049935073 0.047560733 0.06278219
000200 05 b8 bf 3c cb 4d f2 3b ec b6 85 3d 30 a2 10 3e
       0.023403177 0.0073945276 0.0652903 0.1412437
000210 5f 8d 08 3c 94 bb 85 3d e7 31 75 3d de 50 ad 3d
       0.008334487 0.06529918 0.059862044 0.0846269
000220 2c 27 24 bc 5e c9 84 3d 44 cd b5 3c 28 f2 bc 3d
       -0.010019105 0.0648372 0.022192605 0.09225875
000230 c8 9c 1e bc a5 af a3 3c 93 59 fb 3c dd 5e 53 bc
       -0.009680934 0.019981215 0.03068236 -0.012901035
000240 31 66 37 bd b7 05 4a bd 40 be 73 3b 7d 3c e2 bb
       -0.04477519 -0.049321856 0.0037192255 -0.0069041834
000250 dc dc 02 3d 71 a9 77 bc 7f 41 19 3b 79 ac 55 bc
       0.03194891 -0.015116082 0.0023384986 -0.013041609
000260 62 da b4 bc 59 2a 1f 3c 0b bc a5 3c d1 0c d9 3a
       -0.02207679 0.009714686 0.020231267 0.0016559606
000270 e4 6f 0c 3d 96 0f 8a 3c 20 1f 59 3b cf ef e0 bb
       0.034286395 0.016853135 0.0033130124 -0.006864525
000280 c1 65 de bc 74 c2 f0 3b 20 41 11 3c eb 6a 3b 3b
       -0.02714813 0.0073473994 0.008865625 0.0028597664
000290 c1 09 59 3c 26 6d 45 bd 44 3f 8e bc c0 58 fa ba
       0.013246954 -0.048199795 -0.017364152 -0.0019099936
0002a0 85 2f 49 3c 2b d8 0d 3b 27 84 d9 3c ff 39 e2 bc
       0.012279396 0.0021643739 0.026552273 -0.027615545
0002b0 bf ae e2 3c 9a a6 8e bc d0 e4 2b bc 9c 1a 19 3d
       0.027671216 -0.017413426 -0.010491565 0.037378892
0002c0 73 12 7f 3c 6f f9 ce 3c 4a ad b2 3c c2 82 62 3c
       0.0155683635 0.025265424 0.021811146 0.01382512
0002d0 0f dd 6f 3b 7e 82 d9 ba e2 f4 1e bc da 85 a1 bd
       0.0036600267 -0.0016594676 -0.009701939 -0.07886858
0002e0 d1 b4 94 bb cb 10 8e 3c 89 1d 16 bc 98 12 96 3c
       -0.0045381566 0.017341992 -0.009162315 0.018319413
0002f0 f6 5f 0e bd 2c 58 1c 3c 1d be 17 bc d1 3b b3 bc
       -0.034759484 0.009542506 -0.009261635 -0.021879109
000300 4d b0 7b bb 72 2e 10 3d 4c 94 5f bd cd 40 3c 3b
       -0.0038404644 0.035200544 -0.054584786 0.0028725148
000310 dd e3 9a bc ed e3 d3 bb 01 ec 9c bd 30 06 0c 3d
       -0.018907482 -0.00646638 -0.07662202 0.03418559
000320 c7 8b 9f 3c 23 87 9d ba bd 76 7e bd 60 e1 e0 3c
       0.01947583 -0.0012018423 -0.062124956 0.027451217
000330 af b7 3f bc e4 9a de 3b fa 35 34 bd fe 92 3b 3c
       -0.011701508 0.0067933667 -0.04399679 0.01144862
000340 8a b1 f5 bc cc 6f 10 3d d6 63 0c bd d0 ef 8c bc
       -0.029991884 0.035262868 -0.0342749 -0.017204195
000350 5c 6b 03 bd 71 8e 1a bd f9 eb 1b bd a6 40 a0 bc
       -0.032084808 -0.0377335 -0.038066838 -0.019562077
000360 0a f6 0d ba 69 8f 66 3d cb b6 16 bb 44 c3 16 bd
       -0.0005415386 0.05628911 -0.0022997137 -0.036807314
000370 d2 fd eb 3b 03 43 87 3c 3d e3 46 3d 33 df c8 3c
       0.0072018886 0.016511446 0.048556555 0.024520492
000380 90 65 c8 bc 0d b3 06 3d be f8 53 3c eb 0a 36 3c
       -0.024462491 0.0328856 0.012937723 0.0111110015
000390 e3 7d 5c 3c 75 4f 8d bc a4 52 8d bc 67 4b 8b bb
       0.013457748 -0.017249802 -0.01725132 -0.004250932
0003a0 5a 7a e9 bb d5 4f 27 bd 02 b2 08 3c 5b 29 be bc
       -0.007125181 -0.040847618 0.008343222 -0.02321308
0003b0 db 73 0a 3d 10 97 82 bd 53 13 40 bc f4 e4 8d bc
       0.033801895 -0.06376469 -0.011723357 -0.017321087
0003c0 93 18 2e 3c 04 a9 b5 bc d8 03 c1 bb b7 25 da 3b
       0.010625976 -0.02217532 -0.005890351 0.006657328
0003d0 ef 88 12 3d e9 2e de ba 6b 91 a6 3b 1b d0 58 3d
       0.03577512 -0.0016951236 0.005083253 0.05293284
0003e0 71 77 5e 3c 4d f9 fa bc f4 bf f6 3b a8 59 7f 3c
       0.013578282 -0.030636454 0.007530207 0.015585341
0003f0 da 13 d8 bb 3a e6 b5 bb dc 86 f6 3c be 65 41 3b
       -0.0065941634 -0.005551127 0.030093603 0.0029510106

layers.0.bias f4 [128]
000000 32 c8 20 3d cb e5 9b bd c4 3c 82 3d 9c 21 96 be
       0.03925342 -0.07612189 0.063592464 -0.29322517
000010 c7 4f 3a be 72 6f 20 3d d5 11 10 be ec d9 af 3b
       -0.18194495 0.039168783 -0.14069302 0.0053665545
000020 9c 15 41 3c 04 09 83 bc 13 27 7d 3c 6d 56 cc 3c
       0.011784937 -0.01599551 0.015451211 0.024943555
000030 18 4c c7 3c c1 89 88 3b 94 bc d3 bc f4 e1 2d be
       0.024328277 0.004166812 -0.025846757 -0.16980726
000040 24 6c 9c be 76 41 45 3d 76 2b 92 3c 52 06 a0 3c
       -0.30551255 0.04815813 0.01784299 0.019534264
000050 02 39 00 bd f6 e8 3d 3d 5f fd 0a 3d 5e 3b 54 3d
       -0.031304367 0.046364747 0.03393304 0.05181443
000060 a3 15 f8 3c fa 85 61 be 7a d4 13 bc 47 a8 e6 3c
       0.030283755 -0.22023764 -0.009022826 0.028156413
000070 3a 2e f9 3c 9b c8 78 be ae eb 59 ba 34 c2 b9 bc
       0.03041755 -0.24295275 -0.0008313012 -0.022675611
000080 c0 74 49 3d e1 5d 72 3d 5e e8 cb bc a0 87 a4 bb
       0.049183607 0.05917156 -0.024891075 -0.0050210506
000090 55 16 13 3d 64 e2 d9 bb 70 06 c0 bd d9 0a b4 3c
       0.03590997 -0.0066493023 -0.09376228 0.021977829
0000a0 39 ff 0f 3d 48 3d 43 be 6d 61 ae bd 8f d4 79 3d
       0.03515551 -0.19066346 -0.08514676 0.060993727
0000b0 84 64 a4 3d cd 23 1d 3d 00 00 70 be 11 68 b2 bd
       0.08026984 0.03836422 -0.234375 -0.08711255
0000c0 35 ca 48 3c 83 50 8d be 3e bd fb 3a ea 62 c5 3d
       0.012255241 -0.27600488 0.0019206179 0.09638007
0000d0 8b ad ba 3d b2 21 c0 bc 91 4b 4e be 3a 7f 30 be
       0.09115132 -0.023453567 -0.20146014 -0.17236033
0000e0 99 a1 3d be ab 93 82 3d 47 2b c8 3c 71 fd 1e be
       -0.18518676 0.06375822 0.024434699 -0.15526368
0000f0 68 8c a5 bd 8a 9c a1 3d 4c 58 06 3d b3 b1 0c 3d
       -0.08083421 0.078911856 0.03279905 0.034349155
000100 39 39 3f 3c 1b 90 b5 bd c3 46 bb 3d ad 36 38 3d
       0.011671358 -0.088653766 0.09144356 0.044974018
000110 15 dd d2 3c 96 84 c7 3c ee 15 37 bd ca dd ac 3c
       0.025740186 0.024355214 -0.04469865 0.021101851
000120 d2 b0 a7 bd e4 a8 bd 3c f6 f8 24 3d 1f 68 65 be
       -0.08188023 0.023151822 0.04027649 -0.22403
000130 18 2f 52 bd 71 01 0a 3d 2e 61 9f 3d 71 d9 6b 3c
       -0.051314443 0.03369278 0.077822074 0.014395104
000140 38 61 fd 3c c7 c4 9d 3d 05 33 b8 bc 9d 9b 5d 3b
       0.030930147 0.07703548 -0.022485266 0.0033814677
000150 11 80 29 3d 73 ff 54 be 7f 6a 3f be 97 3b dc 3c
       0.0413819 -0.20800571 -0.18692969 0.026883883
000160 15 24 81 3c a4 3d 9b 3d 71 45 a6 be 02 ef a8 be
       0.015764276 0.075801164 -0.32474855 -0.32994848
000170 db f6 bc bb cf d5 b3 3d a2 f0 78 3d 62 f5 72 3d
       -0.005766732 0.08781015 0.06077636 0.059316047
000180 e7 33 8c be 79 b9 44 3c 89 c8 16 3d 1e a3 f7 3c
       -0.27383348 0.012007111 0.03681234 0.030229148
000190 73 69 82 bd df 68 16 3d b2 a2 d2 3b 00 65 c7 3c
       -0.06367769 0.036721107 0.006428086 0.024340153
0001a0 ec 40 92 3d 05 ca 18 bd 89 10 ff bc 51 8c 7b 3d
       0.07141289 -0.037302036 -0.031135814 0.061413113
0001b0 e0 28 a5 3b 17 93 79 be 34 81 1b 3d 41 ea 91 3d
       0.005040273 -0.24372517 0.037965015 0.071247585
0001c0 5c 89 d9 3b 4b 35 84 3d 6d 57 52 3d 87 91 c3 bc
       0.006638689 0.06455477 0.051352907 -0.023873104
0001d0 ad 5d 4b be 89 4b 0b be 1a 50 99 be 1f 2e 8c 3d
       -0.19859953 -0.13603033 -0.29943925 0.068447344
0001e0 8b 31 a8 3d 91 41 78 3b a7 2f 1b be bb b4 18 3d
       0.082125746 0.0037880877 -0.15154897 0.037281733
0001f0 d1 45 30 3d 0f 14 d0 bd 13 7e 7f 3d ba 70 2d 3d
       0.043035332 -0.10160076 0.062376093 0.042343833

layers.3.weight f4 [64, 128]
000000 d4 48 51 3c c0 e3 3c bd 40 cd 91 b8 d9 e9 1b bc
       0.012773711 -0.046115637 -6.9523696e-05 -0.009516203
000010 05 d2 1a 3d a5 37 04 3d 2d 80 52 bb 04 79 f1 3c
       0.037797946 0.03227963 -0.0032119856 0.02947665
000020 c1 2a 3f bb 6a 9d d1 bc 55 e0 21 bb a2 11 76 3c
       -0.002916977 -0.025587756 -0.0024700363 0.015018852
000030 a6 d2 b7 3b 86 5f ea 3c 42 0f 3f 3d 62 e1 12 3d
       0.005609828 0.028610002 0.04664541 0.035859473
000040 03 6d 4e bd a2 8a 02 3d 11 0c a2 3c 96 37 70 3c
       -0.05039693 0.03187049 0.019781144 0.01466169
000050 4a 46 bf bc 80 bf 64 3c 2c 86 bb 3c ef 5d 1f 3c
       -0.023348946 0.013961673 0.022891127 0.009726985
000060 44 3a 13 3b e0 a7 52 bd e1 b2 ea 3c 98 4b 87 3b
       0.002246515 -0.05142963 0.02864975 0.0041288845
000070 f6 4a 88 3a f7 1d 1b 3b 9e 18 59 3c 8f 48 32 bc
       0.0010398317 0.0023668983 0.013250498 -0.010881557
000080 2f b3 c0 3c fb 5b a2 3c 3e 89 ea 3c fa 2b dc 3c
       0.023522941 0.01981925 0.028629895 0.026876438
000090 77 0f 53 3c 92 ce 82 3c 7e a3 d1 3c 35 b6 0f 3d
       0.012882105 0.015967641 0.025590654 0.035085876
0000a0 e2 4a a1 3b 8d 95 e4 3c 5b 34 08 3d 5d 24 0c 3d
       0.004922257 0.027903343 0.033253055 0.034214366
0000b0 68 bd ec 3b 1e ed f3 3c 9a 53 1d bd cf 46 e7 3b
       0.0072247274 0.029776152 -0.038409807 0.0070580016
0000c0 e0 c1 f6 3c 07 ec 38 bd 7e 16 e2 3c 92 7d 42 3d
       0.030121744 -0.04514697 0.027598616 0.047483034
0000d0 55 75 19 bb ec 9d 6e bc 35 4a a4 bc 23 16 32 bd
       -0.0023415883 -0.014564019 -0.020054916 -0.043478142
0000e0 21 f4 ee bc 35 76 60 3d 5a c0 e7 3c 53 73 a7 3c
       -0.029169144 0.05480023 0.028289963 0.020440733
0000f0 9a 0d 0c 3d e2 43 46 3c 37 a2 3d 3d 6e ef 4b 3b
       0.03419266 0.012101145 0.04629728 0.0031118053
000100 f4 24 19 3d ca 8d 53 bd 92 aa 46 3d 5a 2d 51 3c
       0.037388757 -0.051648892 0.048502512 0.01276716
000110 c4 cf da 3b ec 03 82 3c e6 01 85 3c fe bf 60 bb
       0.0066775996 0.01587101 0.016236257 -0.0034294124
000120 00 5b a9 bc a2 eb 1a 3d 62 f8 34 3a 58 9a 87 bc
       -0.020673275 0.037822373 0.0006903467 -0.016553089
000130 55 6d b1 bc 89 08 12 3d f2 6e 39 3d bb ee ac 3c
       -0.021658579 0.03565267 0.04527182 0.02110993
000140 80 78 e6 3c 88 e0 0d 3d a6 f8 ad 3c af 95 9d 3c
       0.02813363 0.034637958 0.021236729 0.019236414
000150 86 61 81 3c 76 6c 30 bd 86 57 22 3d 8f 94 c7 3c
       0.015793573 -0.043072186 0.03963425 0.02436283
000160 64 c0 a7 3c b8 25 40 3c 52 35 6b bd c1 b3 74 bc
       0.020477481 0.011727743 -0.057423897 -0.014935435
000170 d6 32 02 3d 3e f5 06 3d 0a 15 d0 3c 0c 40 27 3d
       0.031786762 0.032948725 0.025400657 0.040832564
000180 52 14 2b bd 4f de 0c 3d 86 a2 d4 3a 30 1a 2d 3c
       -0.041767426 0.034391697 0.0016222752 0.010565326
000190 cc 4e 62 bc 62 14 af 3b f9 b6 46 bd 3c 75 aa 3c
       -0.013812732 0.005343006 -0.04851434 0.020807855
0001a0 1c 27 09 3d cd 73 b7 3c 66 ea 61 bc e7 d5 3c 3c
       0.033484563 0.022394085 -0.013788795 0.011525608
0001b0 50 ce e5 3b 32 70 55 bd fe 2e 5d 3c 51 74 45 3c
       0.0070131198 -0.05210895 0.013499973 0.012051658
0001c0 53 82 44 3c d4 4b b4 3c b4 bd dc 3c 8a c6 c8 3c
       0.011993962 0.022008814 0.026945926 0.024508733
0001d0 95 ee bb bc 7c d8 ad 3c 72 2f 38 bc c9 25 db 3c
       -0.022940913 0.021221392 -0.011241781 0.026751416
0001e0 4e e3 28 3c 39 fa 8d ba 30 b3 5a 3c 9a ce 35 3b
       0.0103081 -0.0010832018 0.013348386 0.0027741552
0001f0 af 5d ed 3c d0 f3 49 3d f5 0c 2c 3d 70 16 83 3c
       0.028975336 0.049304783 0.042004544 0.01600191
000200 bd ab 49 3b 16 03 49 bb 0d d8 00 3d be a9 12 bd
       0.003077253 -0.0030672005 0.031456042 -0.03580641
000210 cb 25 34 bd e3 be f9 3c d3 67 37 bc 88 d9 ec 3c
       -0.043981355 0.03048653 -0.011194187 0.02891232
000220 70 94 53 bb 08 bd e0 bb fa 8d 0d 3c 54 81 5f 3c
       -0.003228452 -0.006858472 0.008639807 0.013641674
000230 bf 69 e6 3b e6 1f f5 3c 69 99 32 3c 52 0c b6 bc
       0.007031649 0.029922437 0.010900834 -0.022222672
000240 a1 4b 50 bd 98 6d 72 3c 85 e6 70 3c 28 18 df 3c
       -0.050853375 0.014796637 0.014703398 0.027233198
000250 a9 bd 26 bb 41 3e 5b 3c d9 3b 0c 3d 37 b1 13 3d
       -0.0025442636 0.013381542 0.034236763 0.036057677
000260 16 e3 8e 3c 95 73 12 bd d7 f6 ad 3c 86 0f 26 3c
       0.017442267 -0.03575476 0.021235866 0.010135537
000270 86 fd 60 ba d8 dc f8 bc 27 35 f8 3c cb 39 97 3c
       -0.00085827 -0.030378744 0.030298783 0.018460175
000280 3b 46 39 3b 3d a9 68 bb ef 4e d9 3c 57 c8 34 3c
       0.002827062 -0.0035501265 0.026526896 0.011034093
000290 e9 1f 3f 3c a1 e9 6d 3c cc c1 5a bd f8 d3 13 3c
       0.011665323 0.0145210335 -0.053407475 0.009022705
0002a0 6e 04 c0 3b 5d 47 91 bc 53 f9 45 bc 35 ed b7 3c
       0.005859903 -0.017734224 -0.012083369 0.022451976
0002b0 c8 24 03 bc 07 96 b7 3c 36 25 86 bd b2 01 5d bd
       -0.008004375 0.022410406 -0.06550066 -0.053956695
0002c0 66 6b 97 3c b0 ff 30 bd 82 f0 1a 3b c3 1b 40 bc
       0.018483829 -0.043212593 0.002364189 -0.011725369
0002d0 d8 4e 4e 3c 14 b0 8b 3c 69 41 ba bc d0 f6 3a bc
       0.01259204 0.017051734 -0.022736268 -0.011411384
0002e0 7b a1 49 bd f5 1b 9f 3c bd a8 d8 3a 6b 3b 69 bd
       -0.049226265 0.01942251 0.001652978 -0.05694143
0002f0 81 7a 8c 3c 85 ef 5e 3c 88 ef 35 3d 41 c8 af 3c
       0.017148258 0.013606911 0.044417888 0.021457793
000300 37 4c 02 3c aa b9 9b bc 86 5d ec 3b 29 5e d0 3c
       0.007952741 -0.01900943 0.0072132973 0.025435524
000310 3f 14 3e 3c b2 92 e0 3b 0e 26 dc 3a 0a 76 dd 3c
       0.011601507 0.006853425 0.0016796009 0.027033824
000320 5f 33 97 bc 10 46 45 bc 95 e8 66 3c 7c 38 c8 bc
       -0.018457113 -0.01204063 0.014093538 -0.024440996
000330 37 a5 87 bc 11 a8 12 3d 76 61 a1 bc eb 06 b0 3c
       -0.016558273 0.035804812 -0.019699793 0.021487674
000340 a5 b6 d2 3c 9e 05 9f 3c 0e 7b ee 3b 0d d4 22 bc
       0.025721857 0.019411858 0.007277853 -0.009938252
000350 31 69 62 3c 1c b6 86 bd 47 ba 9b ba 42 70 e1 3c
       0.013819025 -0.06577703 -0.0011881076 0.027519349
000360 06 84 ab ba cf b6 78 bb 4a e8 4f bd 63 6c a3 bc
       -0.0013085611 -0.003795076 -0.050758637 -0.019949144
000370 32 1b 60 3c cc 71 57 bc b9 e7 25 3c 94 d1 3b bc
       0.013678359 -0.01314969 0.010126048 -0.011463542
000380 3f 56 36 bd 44 42 83 3c d1 78 d5 3c 7a b2 ed bb
       -0.044515844 0.016022809 0.026058586 -0.007253942
000390 18 71 88 3c 36 2a 95 3c 6a 10 e5 3b 37 e8 8f 3c
       0.01665549 0.018208604 0.006990482 0.017566783
0003a0 9d c7 ab 3c fd cc ef 3b 06 bb c3 bb 5c 9e 41 3c
       0.020969206 0.0073181377 -0.0059732227 0.011817541
0003b0 fd 3e 07 3d 7e ac 81 bd f6 4a be 3c bf 71 2d 39
       0.033019055 -0.063317284 0.023229104 0.0001654094
0003c0 6c 04 0a 3b eb bb a2 3c f3 d4 27 3c 19 0b f4 bc
       0.0021059765 0.019864997 0.010243642 -0.029790448
0003d0 2a f4 73 bd d6 e2 40 bd f8 5d 3a bd df 16 0c bb
       -0.059559025 -0.047091328 -0.04549977 -0.0021375937
0003e0 32 e3 b3 3b ae 68 96 3b 7c 50 5a bd d0 21 a2 bb
       0.0054897303 0.0045901155 -0.053299412 -0.0049478784
0003f0 bc aa bb bb 5a d8 ee 3b aa 44 46 bb 57 54 99 bb
       -0.0057271402 0.0072889747 -0.003025333 -0.0046792435

layers.3.bias f4 [64]
000000 9b e1 9d 3d e0 4e 64 3d 18 de 24 3d e1 3e d8 3c
       0.077090465 0.055739284 0.040250868 0.02639717
000010 eb b3 4b 3d 93 c1 8a bb 1d 03 23 3d 02 ac 48 3d
       0.04973213 -0.0042345016 0.03979789 0.048992164
000020 c2 3c ea 3d e1 8e 6b 3d 61 58 dc 3d 3f c3 a5 3d
       0.1143737 0.057509307 0.107590444 0.08093881
000030 0d 3d 09 3c 7e f3 9f 3b 8e d2 26 3d df 01 06 3e
       0.008376372 0.0048813215 0.040728144 0.13086651
000040 c3 3e c2 3d 29 fe 8d 3d e6 6b e2 bc 47 93 d7 3d
       0.09484627 0.06933243 -0.02763934 0.10526138
000050 4a 00 d2 bc 34 e6 ee 3d 75 93 5e 3d d6 74 ea 3c
       -0.025634903 0.116650015 0.054339845 0.028620165
000060 ce 1b 13 3d 44 b3 6e 3c bd 85 bf 3c ee fd 0e bd
       0.03591519 0.014569107 0.023379201 -0.034910135
000070 ea 80 c5 3d c6 ae ed 3d 39 6b 98 3d 01 f1 02 3e
       0.09643729 0.11605601 0.07442326 0.12787248
000080 2c fe 90 3d 06 22 9f 3d 23 e2 69 3d 27 14 7b 3d
       0.070797294 0.07770161 0.057100426 0.061298516
000090 19 2f 58 3d 22 44 95 3d 8f 09 53 3d f6 4f 62 3d
       0.05277929 0.07288386 0.051522788 0.055252038
0000a0 75 35 f5 3d 7e 66 f3 3d 08 09 e9 3c 35 2f 58 3d
       0.11973087 0.11884783 0.02844669 0.052779395
0000b0 6f da fe 3d 93 54 d8 3d d5 a4 6c 3d b7 44 b7 bc
       0.12444007 0.10563006 0.057774384 -0.022371633
0000c0 c5 49 7e 3d 5d be ec 3d 16 ce f4 3b 7b ad 50 3d
       0.06208207 0.115597464 0.0074708564 0.050946694
0000d0 ef 64 93 3d e7 8b fa 3d ec 62 09 3e 78 ff 77 3d
       0.07196986 0.122337155 0.13416642 0.06054637
0000e0 12 bb d7 bc 37 04 03 3c b4 05 2f 3d a3 f2 f0 3d
       -0.02633432 0.00799661 0.04273005 0.11765029
0000f0 71 bc 0a 3d b4 e8 9c bd ad dd 92 3d 88 18 74 3d
       0.033871118 -0.07661572 0.071711875 0.059593707

layers.6.weight f4 [32, 64]
000000 7f 44 24 3d b7 80 b9 3d d5 c6 cd bc 14 32 03 bd
       0.040104385 0.090577535 -0.025119225 -0.03203018
000010 cf 32 a4 3c 82 8c b7 bb e8 86 be 3d 4c 7e 92 bc
       0.020043759 -0.0056014666 0.09303075 -0.017882489
000020 ad 18 2a 3d 79 b9 d1 bc ec 00 db ba 33 55 8f 3d
       0.04152744 -0.025601136 -0.0016708649 0.06998672
000030 12 cc c8 bc 02 be 4a bc ff 1b b3 3d ff df a6 3d
       -0.02451137 -0.012374403 0.08745574 0.081481926
000040 02 2b af 3c 56 2e b4 3d 98 12 ea bb b7 09 86 3d
       0.021382812 0.087979004 -0.00714333 0.06544822
000050 ce 03 ff bb 01 2b 6b 3d 41 9a 32 3d 23 bb 9f bc
       -0.007782436 0.05741406 0.04360414 -0.019498413
000060 a8 fe e7 bb 61 35 ff bc ab 72 95 3d c6 85 18 bd
       -0.007079918 -0.031153383 0.07297262 -0.03723695
000070 e8 b8 70 3d 81 7b 50 bc eb 3e b6 3d c4 8e 23 3d
       0.05877009 -0.012724758 0.088987194 0.039931074
000080 b7 8b ae 3d 5c 50 7b 3d 7f 9a b2 3d 0d 32 11 3c
       0.08522742 0.061355934 0.08720874 0.008862031
000090 5a a4 f0 bc df 22 37 3d a9 23 44 bd d2 41 77 3d
       -0.029375244 0.04471099 -0.04788557 0.060365506
0000a0 fa 7d 36 3d 59 4d ab 3d 2f f5 02 3d 49 86 03 3d
       0.044553734 0.08364362 0.031972107 0.032110486
0000b0 5b 38 79 38 10 14 47 3d 5f a9 3a 3d c6 d9 6b bd
       5.941871e-05 0.048603117 0.04557168 -0.05758073
0000c0 c0 78 5e bc d0 07 e5 bb 9d b4 8b 3d 08 fa 83 bd
       -0.013578594 -0.0069894567 0.068215586 -0.06444174
0000d0 fb 9b 13 3c ca 41 ae 3d 0b 3f 5e bc 78 48 0b 3d
       0.009009357 0.08508642 -0.013564835 0.03400466
0000e0 96 d6 20 bd a1 70 1b bd ac e8 86 3d 91 85 92 3d
       -0.039267145 -0.03794921 0.065873474 0.07154382
0000f0 17 54 07 3c 38 89 7b bd df b7 ad 3d 47 eb a7 bc
       0.008259795 -0.06141016 0.08482336 -0.020497931
000100 e4 23 85 bc e5 72 e2 bc 49 e5 f1 3b 31 42 36 3c
       -0.016252466 -0.027642677 0.0073820692 0.01112418
000110 db 4e f7 3b 06 2d 0f 3c 59 ad 3b bd 32 0d 2d bd
       0.007547242 0.008738762 -0.045819614 -0.042248912
000120 4f 4f bc bc 55 4e 28 be b7 76 4d bc 11 bc 18 bd
       -0.022987036 -0.16436131 -0.012540511 -0.03728873
000130 5e f7 85 3d e3 b0 9e bd 03 d4 a5 bc fe 17 1e bc
       0.06541322 -0.07748582 -0.020242697 -0.009649275
000140 28 39 e4 bc 65 24 17 bd 75 52 a7 3b 35 a7 b0 bc
       -0.027859285 -0.036899943 0.005106265 -0.021564106
000150 cc b4 18 3d bb e0 26 bd 6f c9 cd ba ae b3 da 3d
       0.037281796 -0.040741663 -0.0015700291 0.106788024
000160 22 3e d0 3c 73 6f 00 3e 7a eb 0f bd 62 3f 4d 3d
       0.025420252 0.12542515 -0.035136677 0.050109275
000170 1f 60 1f bd ec d2 57 3b db 84 a6 bb ab 97 96 bc
       -0.038910028 0.0032932116 -0.0050817556 -0.018382868
000180 43 27 91 bc 59 74 99 bb 49 e1 eb ba 7d 72 3c bc
       -0.017718917 -0.004683059 -0.0017996217 -0.0115019055
000190 f6 f8 a7 3d 21 91 75 bc 02 07 3f 3d 09 e9 b0 bc
       0.082017824 -0.014988215 0.046637543 -0.021595495
0001a0 6b 2f 2b bd bb 2a d7 bb 3d 3a ff bc ec 8d 15 bd
       -0.04179327 -0.006566373 -0.0311557 -0.0365123
0001b0 8a e7 11 bd 95 f8 ca bc 09 04 39 bd 07 2a 8b bc
       -0.035621203 -0.024776736 -0.045169864 -0.016987814
0001c0 10 98 82 bd e4 dc 1a bd 93 a9 39 bd a4 df 32 bc
       -0.0637666 -0.037808314 -0.045327734 -0.010917578
0001d0 bc ce 0d bc 3b 1a 90 3b a1 14 1d bd c2 fe d2 bc
       -0.008655246 0.004397658 -0.03834975 -0.025756244
0001e0 5b 76 d4 3c c5 20 1a bd e2 45 a8 3b f3 95 24 bd
       0.025935343 -0.037628908 0.005135284 -0.040182065
0001f0 05 2f cf bb 52 cd 1e 3d 5f 8d 1e bd 3a 43 1b 3c
       -0.006322744 0.038770027 -0.03870904 0.009476477
000200 9c 39 f0 bc 81 45 46 3d 0e a0 b6 bc 48 e3 48 bc
       -0.029324345 0.048406128 -0.022293117 -0.012261219
000210 70 3c 75 bc a8 a1 1b bc cb 8d a5 ba e8 14 fc bc
       -0.014968023 -0.009498991 -0.0012630759 -0.030771688
000220 d2 0c 28 3c 3e be a4 bb 8f 33 10 ba 43 9d a4 3c
       0.010256963 -0.0050275614 -0.0005500847 0.02009452
000230 89 20 ba ba 1b 00 6a bb 7a 1e 84 3c c3 95 13 3d
       -0.001420037 -0.003570563 0.016127814 0.036031496
000240 7d 44 b4 3c e7 3a 06 3d 81 b1 ae 38 7a 0a 2b 3c
       0.022005314 0.032771017 8.330029e-05 0.0104395095
000250 5e 2c 87 bb 27 65 86 3a 72 e5 85 bc 47 62 dd bc
       -0.004125162 0.0010253534 -0.01634476 -0.027024401
000260 8d 95 8c bb a1 86 00 bc 30 64 fc ba 2e 12 b4 bc
       -0.004290289 -0.007844598 -0.0019255932 -0.021981325
000270 5a b3 96 3c ad 9b 0f bd e8 ec b7 bc 7e 3d a3 3c
       0.018396068 -0.035060573 -0.022451833 0.019926783
000280 52 23 01 3c 84 24 fb 3c 54 88 a6 3b 29 55 aa bb
       0.007881956 0.03065706 0.0050821695 -0.00519814
000290 9a ab fc 3a bf d5 46 3d 29 6f 7b bc 2e 68 d7 bc
       0.0019277215 0.048543688 -0.015346327 -0.026294794
0002a0 46 52 c9 3c 39 d6 19 3d 5c 43 d5 3c ad df 06 3c
       0.024575364 0.037557814 0.026033096 0.008232039
0002b0 9f 48 b9 3c 60 24 91 3c 96 04 5f 3c e8 b9 e2 bc
       0.022617636 0.01771754 0.013611933 -0.027676538
0002c0 8e f1 5f bc dc 81 2b bc d0 e6 27 3b 55 fa fa bc
       -0.013668431 -0.010467973 0.0025619753 -0.030636946
0002d0 c2 c1 46 3c bb 1c f6 bc 8c bc 83 37 75 ae 61 3c
       0.012131156 -0.030042997 1.5704216e-05 0.013774504
0002e0 4d 83 bd bc b0 d8 3c bb 5d f5 59 3c 67 08 b6 3c
       -0.023133898 -0.002881568 0.013303128 0.022220803
0002f0 95 b1 7a bc e8 e2 2e bc 3a 54 82 bb 38 91 e3 3b
       -0.015301128 -0.010674216 -0.0039773257 0.0069448017
000300 1f 6f 87 bd 79 3f a7 bc 79 fc 97 3c 75 8b 75 3d
       -0.066129915 -0.020416008 0.018553006 0.05994745
000310 38 8a 12 3c 53 75 b4 bc 42 86 ee bc 2d ac 3a bd
       0.008944087 -0.0220286 -0.029116753 -0.045574356
000320 b1 8a 85 3b 63 27 01 3e a1 42 92 bd 02 c2 20 bc
       0.004075371 0.12612681 -0.07141615 -0.00981188
000330 f9 c8 10 be 21 b0 0f bd 99 4a 06 3d 24 7c d7 ba
       -0.14139165 -0.03508008 0.032785986 -0.0016440195
000340 23 6b ca 3b 10 a4 b8 3b dd 9c 41 3b d9 52 86 bb
       0.0061773225 0.005634792 0.002954296 -0.0040992317
000350 4e a5 f6 3d b4 76 05 3c 29 33 32 3d 65 42 b9 3c
       0.12043248 0.008145977 0.04350582 0.022614667
000360 15 0d 52 3d b1 01 d4 3d bd ff 2c bd 34 7b 8c bd
       0.051282007 0.10351885 -0.04223608 -0.06859437
000370 17 a2 d3 bb d8 65 c2 bd c3 c4 cf bd 03 b4 2b bb
       -0.0064585316 -0.094920814 -0.10144951 -0.0026199825
000380 7d c0 0a bd bf e5 17 3c ad 88 62 bd dc 65 ab bd
       -0.033874977 0.009271084 -0.055306125 -0.083690375
000390 22 5a b2 3d 01 c7 a8 3c 2a 3d d6 3c 85 9b 96 bd
       0.08708598 0.020602705 0.026152212 -0.07353882
0003a0 65 5f f5 bc e9 64 69 bb ad aa 3d bc 60 91 a7 3c
       -0.029952714 -0.0035613126 -0.011576337 0.020455062
0003b0 50 9e 1f bc b6 bd db 3a 1f 82 5f bb 18 7f 14 3c
       -0.0097423345 0.0016764912 -0.0034104658 0.009063505
0003c0 9a 09 0c ba f4 08 0e bc ab 9d a9 bb 16 89 f1 3b
       -0.0005342007 -0.008669127 -0.005176266 0.0073710782
0003d0 fa 10 7d bd 8a cf 0d bc c3 fa 4d bc d2 fb 23 bd
       -0.06178377 -0.008655438 -0.012571993 -0.040035076
0003e0 ba b5 4b bd 7d 0f 2b 3d c9 19 c7 bd 8f 57 ef bc
       -0.049733855 0.041762818 -0.09721715 -0.029216556
0003f0 52 77 86 3d 4d be 04 bc 12 49 78 bc 30 8f 4f bd
       0.06565727 -0.008102012 -0.01515414 -0.050673664

layers.6.bias f4 [32]
000000 41 86 29 3e c2 fe db 3d 5d c1 d1 3d b4 c5 a1 3d
       0.1655512 0.107419506 0.10241959 0.07899037
000010 a0 1b f0 3d 0b c1 09 3e 7b 17 13 3d 31 3e 4f 3e
       0.11724019 0.13452546 0.035911065 0.20238568
000020 0a 6f 96 3d 4a 3c 6e 3e c3 e7 8a 3d 36 f6 99 3b
       0.07345398 0.23265186 0.06782486 0.00469854
000030 6b d9 2c 3e 81 17 82 bd 2a d8 a0 bc 84 57 00 3e
       0.16879813 -0.06352139 -0.019634325 0.12533385
000040 3d 53 2a 3e b7 18 4e 3d c6 17 9c 3d 4c 32 fd 3d
       0.16633315 0.05031654 0.07621722 0.12363109
000050 52 9f 95 3d bf 9c 12 3e 63 f0 43 3e 7d ed db bc
       0.073057786 0.14317606 0.19134669 -0.026846642
000060 eb 85 29 3e 00 a6 de 3d 46 14 52 3e 6f f7 a1 bd
       0.16554992 0.10871506 0.20515546 -0.07908522
000070 41 44 4e 3e 66 03 40 3e e7 2a 8c bc 96 b8 2b 3e
       0.20143224 0.18751296 -0.017110301 0.16769633

layers.8.weight f4 [1, 32]
000000 fd 71 21 be 90 5b 0a 3e 8e 48 c4 bd b4 bd 3d 3e
       -0.1576614 0.13511491 -0.09584151 0.18529397
000010 07 08 41 be eb 38 aa bd b6 83 17 3e 59 d6 e7 bd
       -0.18850718 -0.083116375 0.14796337 -0.113201804
000020 c2 e6 76 3d 92 81 3e be d5 be dc bc db 61 d5 3d
       0.06027866 -0.18604115 -0.026946465 0.10419055
000030 e9 1f 26 3e 49 56 1c bd e5 b2 54 3d 2e e1 39 be
       0.1622311 -0.038168225 0.05192842 -0.18152305
000040 42 06 0b 3e e2 79 86 3d 42 9e 12 be 8d cd 15 3e
       0.13576606 0.06566216 -0.14318183 0.14629193
000050 87 70 8d bd b2 74 2a 3e e3 9c 42 3e 36 04 85 3d
       -0.069062285 0.16646078 0.1900516 0.06494944
000060 ff 01 21 be 1e d7 5f 3e 45 6d 25 3e 1b 18 8f 3d
       -0.15723418 0.21859404 0.16154964 0.0698702
000070 ff 02 80 be 78 9a 4f be 66 bd 98 bc 5b e7 11 3e
       -0.25002286 -0.20273769 -0.018645 0.14248411
